Assignment_3/best_model.pt (torch, 254121 bytes, 13 tensors)

gru.weight_ih_l0 f4 [192, 1]
00000000: e6e2 08be e392 1e3e e944 973d b509 753e
00000010: 2d28 183d 3404 403e 8595 b2bd 5f66 b63d
00000020: e676 dd3d a412 d93d 49ca 393e c48c bbbd
00000030: f800 a23d a62a 0d3e 2c35 ac3e c714 9f3d
00000040: 45ba 1b3e 60f2 bf3d ec3b 263c 0535 103e
00000050: fcee 6abc 4e64 9dbd 2997 a3bd f73b ab3e
00000060: dfd5 163e 94f7 00be 1d3f c93d 9e15 93bd
00000070: bee9 163e 3116 133e b03e d8bc a058 173c
00000080: 9db2 44bd 38dd 413e 6587 23bd d667 a43d
00000090: 02d3 193e e8b3 c4ba 4bb5 15bd 3a35 2dbc
000000a0: fd5b 933d 1fdd a63d cbe9 b03d c035 0c3e
000000b0: c645 053e 4116 c8bc cf56 e53d c666 94bc
000000c0: 64d2 803e 0610 b3bd e6c4 7e3e 9fe4 1a3e
000000d0: 44e3 60bd 035b 1a3e f240 e13d 1056 23bd
000000e0: 3ac7 03be c506 613c ee29 b63d e95d fb3d
000000f0: e904 c03d 5e97 89bc a930 3e3c 3820 5d3d
00000100: eea0 bebd 233a b63d 710d b13d 0dd4 8a3c
00000110: 1a1f 3dbd 2c24 cdbc b7e6 b93d 109b dd3d
00000120: 825e 90bd f5ec a23d 515f 403d c6ab 2dbe
00000130: 37ad 0d3e c90c 9f3d cad9 d93d 004c a13d
00000140: e046 df3d 5610 cf3d c3fb f03d da33 f83d
00000150: 2352 c53c cb23 b7bc 2c68 153e d8b1 c0bb
00000160: f67e 093e 841a 0cbd 6c0a f73c 9191 143d
00000170: 5259 6c3d 0433 55bd 98d8 9f3d d70a ad3d
00000180: 502b a3bd 5a91 cd3d 0ef3 a63d f636 0b3d
00000190: 473a 033d 8093 aabd ec5b da3c 913d a8bd
000001a0: 7752 8abd 676b 1a3e 0e2c 2e3b 9267 6e3d
000001b0: b26f d8bd 82be 483d 90b3 313c 5124 5ebb
000001c0: 7b8f 143e ab7f ff3c a55c 863c 78e3 f13d
000001d0: 4471 c53d edd4 f43d 4d62 82bc 58a6 d93c
000001e0: e92f 323e a42d b73c 4269 b33b 1777 0c3c
000001f0: 4d73 4c3e 215e 17be d759 e33c 43fe 333c
00000200: 0e82 4c3e 87f7 6d3e 456b e73d 0d50 283e
00000210: f2d2 71be 2925 1cbe 6932 343e a1cb 923e
00000220: 8c28 de3d 04f3 d3bd 2669 713e f80d d63d
00000230: 5e6d e6bd 50d6 c9bd ae76 43be 2235 0fbe
00000240: 6d70 3bbe 5b7a 9f3d a748 a3bd b865 c3bc
00000250: 9db1 503e 230c 163d d10c 323e ce28 833e
00000260: 463e f93d 8d12 15be 9446 dcbd 59a7 f6bb
00000270: 960c 00be d36c bebd ffe1 8dbd 7ee5 0f3e
00000280: 7552 b03d 3a6c 2d3e 9d5d d6bd a0d0 14bd
00000290: ab7d 4cbd 2544 7b3d 0de2 a8bd 27a3 f73d
000002a0: 2b27 d7bd 6752 20be a44e 66be 656e b4bd
000002b0: 131b 0abe 2c6f 193d 65ab bfbd 27d3 3ebd
000002c0: a7ef 493e e4cf adbd 092b 23be 3579 f1bd
000002d0: e0ef 0c3e 6e40 6c3e 595f 4c3e facc 2cbe
000002e0: 1ea5 b73d 4ac9 efbc 7450 853d 2e4b 0abd
000002f0: 92bb 353e afe9 d33d dd3c d43d d835 ca3d
-0.13367805 0.1548572 0.073861904 0.23929484 0.03714769 0.18751603 -0.08719925 0.089062445
0.10813694 0.105992585 0.18143572 -0.09157708 0.07910341 0.137858 0.33634317 0.07767635
0.15207775 0.09372401 0.010146122 0.14082725 -0.014339205 -0.07685147 -0.07987816 0.33444187
0.14730023 -0.12594444 0.09826491 -0.071818575 0.14737603 0.14363934 -0.02639708 0.009237438
-0.0480219 0.18932045 -0.039924044 0.08027618 0.150219 -0.001500723 -0.036549848 -0.010571772
0.0719528 0.08147644 0.086383425 0.13692379 0.13014898 -0.024424674 0.11198198 -0.018115412
0.25160515 -0.087432906 0.24879798 0.15126275 -0.054904237 0.1507378 0.109987155 -0.039876997
-0.12868968 0.013734524 0.08894716 0.12273771 0.093759365 -0.01679581 0.011608281 0.053985804
-0.09308039 0.088978074 0.08645142 0.016946817 -0.04617224 -0.025041662 0.090772085 0.108205914
-0.07049276 0.07955352 0.0469659 -0.16960058 0.13835607 0.077661105 0.10637243 0.07875824
0.1090219 0.10110538 0.1176677 0.12119265 0.024087017 -0.022355935 0.1459052 -0.0058805756
0.13427338 -0.034204975 0.030156337 0.036271635 0.05770237 -0.052050605 0.07804984 0.08449333
-0.079672456 0.10037489 0.08151828 0.03398796 0.032038 -0.08328915 0.02665516 -0.08214868
-0.0675401 0.15080033 0.0026576552 0.05820424 -0.10568179 0.049009807 0.010846034 -0.0033896158
0.14507858 0.031188807 0.016401598 0.11810964 0.09640744 0.11954675 -0.015916014 0.026568577
0.17401089 0.02236063 0.005475194 0.008573315 0.19965859 -0.14782001 0.0277528 0.010985914
0.19971487 0.23238955 0.11299757 0.16436787 -0.23615626 -0.1524855 0.17597355 0.28670982
0.108475775 -0.10349086 0.23575267 0.10451883 -0.11251329 -0.0985533 -0.19088241 -0.13985112
-0.18304606 0.07787009 -0.07972842 -0.023852214 0.20380254 0.03663267 0.17387702 0.2561707
0.12170081 -0.14557858 -0.10755649 -0.0075272736 -0.12504801 -0.092981 -0.06927871 0.14052388
0.086094774 0.16935816 -0.10467074 -0.036331773 -0.049924534 0.061344285 -0.08246241 0.12091666
-0.105055176 -0.15656434 -0.22490937 -0.088101186 -0.1348689 0.037459537 -0.09358863 -0.04658809
0.19720326 -0.084869176 -0.15934385 -0.117906965 0.1376338 0.23071453 0.19958247 -0.16875067
0.089670405 -0.029270787 0.06509486 -0.033763103 0.17747334 0.10347306 0.10363171 0.09873551

gru.weight_hh_l0 f4 [192, 64]
00000000: 135d e43b 45df 5abd 04aa bd3d cb2b 16be
00000010: 86a2 663a 4a71 35be 6f16 203e 3450 6c3b
00000020: 1cc8 1fbd 884a 9d3d 478b a1bd 7b3d 48bc
00000030: b187 843c f2cd 00bd 8687 19bc 2fc6 e5bc
00000040: 3912 013d c478 b6bb ab00 37bd 8b47 31be
00000050: d90c 13bd 9ef0 dc3a f2f0 7e3b aa87 85bd
00000060: 4806 8d3d 914b 023e 80a3 39bd e35d 1f3e
00000070: 7130 57bd e074 2d3b 3714 15be 9870 d4bd
00000080: 6602 cc3d 96bf b23c 24e1 8abc e85d f0bc
00000090: 1d32 a5bd 1abc 19bd 2d9b efbc 8503 c2bc
000000a0: 00b6 a5bd e234 b63d 68b2 fc3d d6e7 7dbd
000000b0: 53bb dcbd a349 283d 5676 e3bc 3e5e 0cbe
000000c0: 94c9 fbbd 9401 8cbd 3bfb a1bd 103d 1fbe
000000d0: 802f 01bd 0ac4 2fbd d877 0d3d def7 7b3d
000000e0: bfc9 bc3d deef cf3c 38dc a4bd 2c0a 723d
000000f0: 2019 21bd 5559 c93d ad05 843d f550 9cbd
00000100: 898d 19be 9650 8a3d 2779 e83c 4a3e 103d
00000110: 00ad 25be b996 abbd 2e8b c93d 2cfe 01be
00000120: c9b4 39bb efc8 2f3d 2c1f fe3d e32c 243e
00000130: fe0d 1d3d 7f22 41be 3e54 23be c647 fc3d
00000140: 1f0c 02be 1eeb d63d 4808 a4bd 3543 1b3d
00000150: d408 6b3d 97cd 1e3d e8c3 693d 0fef 5abd
00000160: ab70 273d eded 38be 7b88 11be 7d05 b03d
00000170: 050e efbd 70c0 4ebd 7121 cabd b34b 96bd
00000180: 9c36 e3bd a04a 813c 22e2 d5bd 49ec 84bc
00000190: 74a1 0abe f863 8a3d 07fd b5bd b7cc 0fbd
000001a0: 7c64 cabd 2b16 2abe 9893 1a3d edde 12be
000001b0: ca7b 053e 7e49 58be 2d82 50be dcfd fbbd
000001c0: b7ca 4d3d a7d1 53bd edfe 29bc 6228 64bc
000001d0: c634 823d b6ed 29bd e50a a13d bba0 d7bd
000001e0: 7e6e 603e bd2a 203d eea7 523e b148 af3d
000001f0: c5df 7e3d 9e33 193e 57b6 52bd 325b 1dbe
00000200: bd35 fa3b dc24 78bc 75d2 8dbc 0a1f 113e
00000210: f335 9d3c 5fcc 9dbb c68b 15be 358b 183c
00000220: 167b c33d 42bf 903d 5b6e bebc a75c 9e3d
00000230: f0fc b9bd f33a 89bd f81d 273d ea60 863d
00000240: 1530 f4bd 3e3c bdbc 9241 ffbd 40be a13d
00000250: f558 f4bd abd8 883b 14bc 06bd 0141 6a3d
00000260: 6769 a3bc a318 73bd 44a0 b13c faef 95bb
00000270: 66ea f5bd 0afa d53c 0a3a d73d 0c19 043c
00000280: f242 623d 64a9 96bd 0125 1b3c d653 67bc
00000290: cf61 d23d 1000 08bd 7fec c7bd a196 5bbd
000002a0: 58ae b8bd 3874 fbbd 14cb 02bd 19f2 14bd
000002b0: 1ebc 913d ed8b 373d 367c 35be 7c3e d73d
000002c0: 4b54 90bc 551b 9fbd 8b44 a23d 8605 203c
000002d0: f9e0 14be db22 9e3b 3e45 d13c 8b82 693c
000002e0: 0769 5d3d f707 05be 0e0d a1bd 27c8 89bd
000002f0: 34c1 f43d 1ea7 20be a8d1 ec3d 428e 15be
00000300: 60fb 393e 73fc 643d 7d64 093e 016f 893d
00000310: 8b4e 5fbe bc7f e3bd 2737 f9bb b37a a6bd
00000320: 1aa8 4c3d 2ff5 e93c 4e79 e93d c0fe 363e
00000330: 6049 1bbe f0d6 1dbe 71c9 52bd 6d37 d13c
00000340: 9693 5fbc c4ae 97bd e7f6 8a3c 6d2d bdbd
00000350: efce 6f3d 8000 8c3d 1c4a 103e fde2 dd3d
00000360: ec10 823d f5a1 463b 9325 50bd 7586 223e
00000370: 3340 d3ba 1659 3bbc f3bc c0bc d61a 99bc
00000380: 6514 213d c519 d93c f7ca 533c 4df9 d33c
00000390: abe5 1fbe 894b b03d 38a2 08be 4881 ff3d
000003a0: 4bf6 873c c540 19bc 92ba 79bc cde8 e5bd
000003b0: 4ce2 babd 107a 42bd 7bcd cdbd daea 0fbe
000003c0: 0dab dcbd 9f88 2d3d 6c6b 1abe fd49 7ebc
000003d0: e8ac fc3d 9fee b43d 5e5d aebd cece a23d
000003e0: 4504 a63d 4007 e13c 9c41 c23d c38b 4fbd
000003f0: 3c90 bc3b 2873 823d 800b cdbb a500 aebb
0.006969103 -0.053435583 0.092609435 -0.14665143 0.00087980216 -0.17718998 0.15633558 0.0036058547
-0.0390092 0.07680231 -0.07887893 -0.012221689 0.016177984 -0.031446405 -0.00937069 -0.028048603
0.03151152 -0.0055685956 -0.04467837 -0.17312448 -0.035900924 0.0016856377 0.0038900939 -0.065200165
0.06885964 0.12724139 -0.04532194 0.15563159 -0.05253643 0.0026467368 -0.14558493 -0.10373038
0.09961395 0.02181987 -0.016953059 -0.029341653 -0.08066199 -0.037532903 -0.029248798 -0.023683319
-0.08091354 0.08896805 0.12338716 -0.061988674 -0.10777917 0.04108585 -0.027766388 -0.13707826
-0.12294307 -0.068362385 -0.079092465 -0.15550637 -0.03153944 -0.042911567 0.03453812 0.06151568
0.092181675 0.025382932 -0.08049816 0.059091732 -0.0393306 0.09831492 0.06446395 -0.07632629
-0.14995398 0.06753652 0.028378082 0.035215653 -0.16179276 -0.083783574 0.098409995 -0.12694615
-0.0028336516 0.042916235 0.12408289 0.16032748 0.038343422 -0.18860815 -0.15950105 0.12318377
-0.12699936 0.10494064 -0.08009392 0.03790589 0.057381466 0.038770285 0.057071596 -0.05345064
0.040878933 -0.18059511 -0.1421222 0.08594797 -0.11672596 -0.05047649 -0.0986966 -0.07338657
-0.110944 0.015782654 -0.10443522 -0.01622595 -0.13538152 0.06757349 -0.08886152 -0.03510734
-0.09882447 -0.16610019 0.037738413 -0.14342852 0.13035503 -0.21121785 -0.20362158 -0.12304279
0.050242152 -0.051713612 -0.01037572 -0.013925644 0.06357722 -0.041486464 0.07863406 -0.10528704
0.2191715 0.03910326 0.20571873 0.08558787 0.062225122 0.14961097 -0.051443424 -0.1536682
0.0076358006 -0.015145507 -0.017312268 0.14171997 0.019190764 -0.0048156227 -0.146041 0.009310533
0.09544961 0.070677295 -0.023245981 0.07732516 -0.09081447 -0.06700697 0.040800065 0.06561454
-0.119232334 -0.023100015 -0.124636784 0.078976154 -0.1193103 0.0041762195 -0.03289421 0.0571909
-0.01994772 -0.059349667 0.021682866 -0.0045757266 -0.120075986 0.026120204 0.10509117 0.008062612
0.055239625 -0.073565274 0.009469272 -0.014119109 0.10272562 -0.033203185 -0.09761905 -0.053610448
-0.090176284 -0.12278026 -0.03193195 -0.036363695 0.07115959 0.044811178 -0.17723164 0.10509965
-0.017618319 -0.07768885 0.0792323 0.009766942 -0.14538945 0.0048259324 0.025545713 0.014252315
0.05405524 -0.1299132 -0.07863818 -0.06727629 0.11950913 -0.1568875 0.11563426 -0.14605048
0.18162298 0.055904817 0.1341724 0.067106254 -0.21807306 -0.11108348 -0.0076054516 -0.08128872
0.049965 0.028559295 0.1140009 0.17870617 -0.15164709 -0.15414023 -0.05146164 0.025539124
-0.013646027 -0.07406381 0.016963435 -0.0923718 0.058546957 0.06836033 0.1409077 0.1083431
0.06350884 0.0030308936 -0.050817084 0.15871604 -0.0016117155 -0.011434814 -0.023527598 -0.018689554
0.03932609 0.026501546 0.012926809 0.025875712 -0.15614955 0.08608157 -0.13343132 0.1247583
0.016596934 -0.009353821 -0.015242236 -0.11226044 -0.09125194 -0.04747969 -0.10048958 -0.14054433
-0.10774813 0.04236662 -0.1508004 -0.01552057 0.12337667 0.08834576 -0.08513902 0.07949601
0.08106283 0.027469277 0.0948517 -0.050670397 0.0057544988 0.063696206 -0.0062574744 -0.0053101354

gru.bias_ih_l0 f4 [192]
00000000: 5b39 a03c 51a1 afbd 8820 87bd 4254 80bd
00000010: 39c6 2fbe ed3b 34bc 3169 793b b336 4abe
00000020: f842 993c 5d22 9d3d 2367 edbc a0ee 2abe
00000030: d071 f0bd b843 f53c 50d5 fbbd 83d8 40bd
00000040: 6e7c abbd b76c 1cbe 8a02 d0bd 1c70 35bd
00000050: b921 bebd b8a9 cc3d a863 23bd 99f2 9abe
00000060: 01dd 03be 664f 873d 8cf5 7bbe aa8b 3e3d
00000070: 056c 03be 585c a5bd c28a bdbd 2714 44be
00000080: dde6 fcbd 26ef afbd 0635 60be 71a9 b7bd
00000090: 81eb 5c3d 7cd7 d1bd 4890 31bd cf6a bdbc
000000a0: c854 dabd 0605 31be 8af3 02be 207c 07be
000000b0: a990 063d f609 bebc 145f 84be c38b e9b9
000000c0: a182 a9bd ce8a 5d3d a66c 88bd 1532 e83c
000000d0: 8e60 8ebd 7630 76bc 448b 03bd aaa0 843d
000000e0: b885 c03d 623d 0abe de96 afbd 3598 973d
000000f0: a444 88bd 3e4b 53bd ca11 653d 4533 1d3c
00000100: 0530 9dbe 271a 90be e303 60be 927d bebe
00000110: 23a3 99be 7a70 cabe 1bbb 40be 2f9b b4be
00000120: 4473 8cbe 4604 fdbd 6961 d2be ec90 b0bd
00000130: 08b8 67be 1579 40be 5122 c1be bcf5 b2be
00000140: e3b0 a3be 092d 82be db76 f6bd 6c15 f53d
00000150: 0177 87be 422f 0f3e 752d 51be 7e29 a1be
00000160: a1c1 a8be d4e8 98be d910 88be 44e8 0abe
00000170: 63e1 80be 72d0 8abe 195e 12be 35ad abbe
00000180: 7dd4 ba3d c6cd c2be dbcb 80bd 8271 f83d
00000190: 5f71 81be cd98 94bd 348f 50be a35f 03be
000001a0: e127 47be 1c0b c1be 70cd 61be 059b fdbd
000001b0: e7f1 3fbe f176 813c 0e8a 81be 995d 0a3d
000001c0: a632 a5be 13fb 12be fedc 8fbe abde 1abe
000001d0: cfd6 6fbe 0572 e8be 091b 7abe 7976 72be
000001e0: cd62 8cbe 2076 e5bd ff90 0bbe baca 053e
000001f0: 9c24 f1be bde8 3abe 110c 4cbe c05f 5bbd
00000200: dc86 c23d 916d 8e3d 8112 4a3d de72 b43c
00000210: 764e b8bc 2ad5 b13d 961c 903d 80ee bd3d
00000220: 30c4 513d a9a5 c23b 4858 653d 93f8 9cbc
00000230: e6cf d7bc eb88 003d 6b5b 933d 7f05 85bd
00000240: 91d4 843d 645c af3c 27e6 99bd b813 cd3d
00000250: cf40 35bd 8bd2 b5bd b029 233d 5e28 9f3d
00000260: 9ebb e9bc 7a03 85bd d871 193d d56f 893d
00000270: f2c0 9b3c 05cf 0abb 5d31 273b 6689 183d
00000280: 8e07 88bd 7654 48bd 215a a9bc 0bc4 33bc
00000290: c7fd 1a3d 21e8 223c 91e6 9eba 0399 ee3c
000002a0: 1b8f bd3c 1a79 09bd e943 a4bd e80f 8bbd
000002b0: c3a6 523d 41af 143d d3ae a1bc e6c1 00bd
000002c0: 6a91 6c3d de92 acbd 2446 59ba b9ba cabc
000002d0: 9448 033d b2c9 853d ac79 083d 4b84 1cbd
000002e0: 5998 843d 8201 96bc bb3f 913c 715f a339
000002f0: 6fa0 253d addd 02b8 2ca7 543a 9edd c73c
0.0195586 -0.085756905 -0.06598002 -0.06266071 -0.1716546 -0.011000616 0.0038057084 -0.19747429
0.018708691 0.0767257 -0.028979843 -0.1669259 -0.11740458 0.029939517 -0.122965455 -0.04708148
-0.083733425 -0.15275846 -0.10156734 -0.04429637 -0.09283776 0.09993309 -0.03988996 -0.30263212
-0.12877275 0.06606941 -0.24605387 0.046519913 -0.12834175 -0.08074254 -0.092549816 -0.19148313
-0.12348721 -0.08590536 -0.21895227 -0.08967865 0.05393553 -0.102461785 -0.043350488 -0.02312222
-0.10660702 -0.17287073 -0.12788215 -0.13230944 0.032852802 -0.02319811 -0.2585379 -0.00044545354
-0.082768686 0.054087453 -0.06661348 0.028344193 -0.0695201 -0.015026202 -0.032115236 0.06475957
0.09400505 -0.13499978 -0.085736975 0.07402078 -0.06653717 -0.05158543 0.055925168 0.009594743
-0.30700698 -0.28144953 -0.21876483 -0.37205178 -0.30007276 -0.39538938 -0.18821375 -0.35274646
-0.2743169 -0.12354331 -0.41089943 -0.08621392 -0.22628796 -0.18796189 -0.37721494 -0.34953105
-0.3197089 -0.25424984 -0.12034389 0.119669765 -0.2645798 0.13982871 -0.20427497 -0.3147697
-0.32960227 -0.29865134 -0.26575354 -0.13565165 -0.25171956 -0.27112156 -0.14293708 -0.33530584
0.0912256 -0.38047618 -0.06288882 0.12131025 -0.25281808 -0.07255707 -0.20367128 -0.12829451
-0.19448806 -0.37703788 -0.22051024 -0.12383083 -0.18744622 0.015803786 -0.2530064 0.033780668
-0.32265204 -0.1435359 -0.2809829 -0.15124004 -0.23421787 -0.4539949 -0.24424376 -0.23678006
-0.2741913 -0.11204171 -0.1362953 0.13065615 -0.47098243 -0.18252845 -0.19926478 -0.05355811
0.09498379 0.06954492 0.049334053 0.02202743 -0.02249835 0.08683236 0.07036702 0.09274006
0.05121249 0.0059401584 0.055992395 -0.019161498 -0.02634425 0.031380575 0.07195171 -0.06495189
0.06485856 0.02140636 -0.07514601 0.10013527 -0.04425126 -0.088780485 0.03983468 0.07771371
-0.028531846 -0.06494804 0.037462085 0.067107834 0.019012902 -0.0021180522 0.00255116 0.03724041
-0.06642066 -0.048908673 -0.02067286 -0.010972033 0.037839677 0.009943039 -0.0012123158 0.029125696
0.023139527 -0.033562757 -0.08020765 -0.06790143 0.051428568 0.036299948 -0.019736683 -0.031434916
0.057755865 -0.0842645 -0.0008288345 -0.02474724 0.032051638 0.06532611 0.03331916 -0.038212102
0.064743705 -0.018311266 0.017730584 0.00031160892 0.040436205 -3.1200867e-05 0.0008112069 0.024397667

gru.bias_hh_l0 f4 [192]
00000000: d5f1 9e3b 9a77 89be 029f 25be c18f adbd
00000010: 21ca 8bbe ae61 a93c 6f4f 19be 386d abbd
00000020: c3b0 313d b736 93bd 8f61 b7bd 8474 86be
00000030: c2f1 2ebd bb27 fc3b d3c0 45be 7461 28bd
00000040: bcad d4bd 267c 58bd e48c 7fbb 8550 b9bd
00000050: e860 1cbc 7d67 b5bd 84ed e23d 1f4a 87be
00000060: ad5a 1ebd b6bb 003e 1c48 cfbd 632f 27bd
00000070: 0c1d 4ebd 100a e9bd 0763 d2bd 4efe 54be
00000080: 7518 ce3d c366 5d3d 481a 94bc efa3 24be
00000090: b6fb 92bc a117 21bd 8510 36bd 6fb3 00bd
000000a0: eac8 cdbc d4a9 07be e69d 8fbd 842a 823d
000000b0: 49bd 32bd af81 643d e625 81bd 1ebd 043c
000000c0: b9b9 32be 4e9f 6b3c ca20 38be a035 a4bd
000000d0: bced 16be d54a 75bd 8d39 60be 5176 36bd
000000e0: 7125 90bc a31d 813d 47e7 8abd 6f13 813d
000000f0: 6b88 6ebe 5737 ebbd 5201 2dbe 70a5 abbd
00000100: 3d26 9dbe 012c 82be e40b 1cbe 0153 84be
00000110: 02ac 84be ad7e bbbe 7592 78be a811 aebe
00000120: 5f9d 4abe 25e5 87be 6cb0 9abe 2ff7 35bd
00000130: 6088 94bd 9753 a0be 1464 89be 2e69 79be
00000140: 1c77 b2be 0ccd 36be 5c8f 30be 796d 453d
00000150: 79d7 8abe cba2 65bd 77e9 9cbe 5981 9dbe
00000160: ed89 88be 9ecd d5be fc56 8cbe f725 1e3d
00000170: bfb6 00be 16b2 bbbd 2a82 24bd 717d 37be
00000180: 84ac e83d d385 29be 1bd6 08be 194c 363d
00000190: f2b8 46be de9b 45be 4364 a3be 95d7 95bd
000001a0: a704 13be 1556 bdbe 93d0 13be 3f01 5fbe
000001b0: 06e3 7fbe cf60 7b3d eb4a adbe 1c8d 983d
000001c0: 27cc 9dbe 1183 8abe 3ecb 8ebe 36c4 17be
000001d0: 60f6 a9be fe19 69be 74d2 66be 844a d4be
000001e0: 912d abbe 8b0b 8bbe 93ff 59be 3afe 543e
000001f0: 8057 93be e2af 23bd c5a1 7ebe 1177 9ebd
00000200: 80f7 b8bd c2f3 6fbd 83b4 52bd 1566 523d
00000210: 2247 b23c e13f 8bbd 2a81 9fbd 518f 8ebc
00000220: 696a 95bd e0c6 7bbd c714 2d3d 9df4 cdbc
00000230: 6ed9 c4bc dc41 673d c858 a4bd 0756 4c3d
00000240: 4f27 3dba c518 b6b9 e416 da3d f266 02be
00000250: 4bbe ae3c 4d9d 033e 5b2b e5bc 0987 9f3d
00000260: 1aad fc3d 2585 443d 0032 4c3c 91d0 d8bd
00000270: c02a 373d 3772 1c3d 5c21 b9bd e869 593d
00000280: 2b78 e13d 89c1 fe3d dfac 273d 9712 a63d
00000290: 095d f13c 9763 5c3d 5a98 03bd bc38 99bc
000002a0: 731c acbd 6a3f 903c 2bef e53d ad57 f93d
000002b0: d8b1 9dbd 115e 3f3d b195 0d3d 5e6f b23d
000002c0: 6f30 313d 52a0 f23d 951d 29bd 4c12 593d
000002d0: 0af4 50bd 72dd 853d 4015 863d 2ed8 8ebd
000002e0: dfff cfbd aa9e 75bc 0547 2cbc 59f1 c63d
000002f0: 682b 273d 9548 293d 730a 2e3d 2ea0 4b3d
0.004850606 -0.2684906 -0.16173938 -0.084746845 -0.2730265 0.02067646 -0.14971708 -0.08370441
0.043381464 -0.071881704 -0.08954155 -0.2626077 -0.042711027 0.007695166 -0.19311838 -0.041108564
-0.103847 -0.052852772 -0.003899389 -0.09048561 -0.009544589 -0.088576294 0.11080459 -0.26423737
-0.038660694 0.12571606 -0.10121176 -0.040816676 -0.05032067 -0.113788724 -0.10272794 -0.20800135
0.100632586 0.05405308 -0.018078938 -0.1607816 -0.01794229 -0.039329175 -0.044449348 -0.03142112
-0.025120217 -0.13248378 -0.070125386 0.063557655 -0.043637548 0.05578774 -0.06306057 0.00810173
-0.1745366 0.014381243 -0.17981258 -0.08018041 -0.14739126 -0.05988582 -0.21896954 -0.04454643
-0.017595978 0.06304481 -0.06782394 0.06302535 -0.23294227 -0.114851646 -0.16895035 -0.08381164
-0.30693236 -0.25424197 -0.15238911 -0.25844577 -0.25912482 -0.36620083 -0.24274619 -0.33997846
-0.19786595 -0.2654201 -0.30212724 -0.044425186 -0.07252574 -0.31313774 -0.26834166 -0.24356529
-0.34856498 -0.17851657 -0.17242187 0.048200104 -0.27117518 -0.056063455 -0.3064687 -0.30762747
-0.2666773 -0.41758436 -0.27410114 0.038610425 -0.12569712 -0.091648266 -0.040163197 -0.17918946
0.1136103 -0.16554956 -0.13362925 0.044506166 -0.19406489 -0.1929774 -0.3191243 -0.0731651
-0.14357243 -0.36979738 -0.14435034 -0.21777819 -0.24988946 0.06137162 -0.3384622 0.074487895
-0.30819818 -0.2705312 -0.27889436 -0.14820942 -0.33195782 -0.22763821 -0.22541219 -0.414631
-0.33433202 -0.27157244 -0.212889 0.20800105 -0.28777695 -0.039962657 -0.24866398 -0.07737554
-0.09031582 -0.058582075 -0.05144168 0.051366884 0.021762434 -0.06799293 -0.07788308 -0.017402323
-0.07295687 -0.06146896 0.042256143 -0.025141055 -0.02402946 0.056459293 -0.08024746 0.04988673
-0.0007215635 -0.000347322 0.10648897 -0.12734583 0.021330973 0.12852974 -0.027974775 0.07789428
0.12337704 0.04797854 0.012463093 -0.10586656 0.044718504 0.03819486 -0.09039566 0.053079516
0.11009248 0.12439258 0.040936347 0.081090145 0.029463308 0.053805914 -0.032127716 -0.01870381
-0.08403864 0.017608363 0.11227258 0.12174926 -0.07699937 0.046720568 0.034566585 0.08712648
0.04325908 0.11846985 -0.041287977 0.052995965 -0.051013984 0.06536378 0.06547022 -0.06974827
-0.101562254 -0.014991442 -0.010514979 0.09714002 0.04081288 0.041328985 0.042490434 0.049713306

gru.weight_ih_l1 f4 [192, 64]
00000000: b2b7 c03d 39dd 70bd e7aa 15bb 3d76 9e3c
00000010: cfca c63c b53b 13be 9026 8e3c 744a 1dbc
00000020: 42c1 533e 4afc e7bd 825b 1bbe fd8c e13d
00000030: 1eca 803c e0df d0bc 410c 20be bd4a c4bd
00000040: 7c5c a8bc bf2d 293d 228e cc3d e6bc 19be
00000050: 0b5d 38bb ccbf 52bd a935 0e3d 8353 36bd
00000060: ae35 80bd 4f80 aabd 63be 53bd 9b8d 87bd
00000070: 6ea8 90bd 8828 32be 305a d4bc 78bc 963d
00000080: 09e4 9abd 1c11 2f3e 8c89 19be 1c9e 36bb
00000090: 83ec 12be a5ed a6bc 84f9 30bc 7bc1 82bd
000000a0: c5ba 24be 8bc0 e1bd 8576 d3bb ab19 0b3a
000000b0: 5ef3 95bd cda1 6fbe 3b50 ccbd d974 d8bd
000000c0: 167d 14be 6956 cd3d 7eda 20be 3a77 74bd
000000d0: b228 f83d 910d 8b3c 378b d1bb a7ca d13d
000000e0: 16aa fe3d 5a21 83bc 58ca 5c3a e4db a4bd
000000f0: c4a7 53bd 126c 873e 9b35 a43d 8857 2bbd
00000100: 2724 8bbd 988d b93d 6367 27bd b619 6ebd
00000110: bff0 bfbd 15ea e9bc e0f0 543d 80ea 1bbd
00000120: 7505 b13d ceec f5bd 9a8f d8bc e428 cdbb
00000130: dcc9 51bd 3839 dcbd ece6 823c 2832 49bd
00000140: 062f 47bd 1b8a c2bd d8d4 193e 15ac acbd
00000150: 9736 163d aa79 da3d 95a4 2cbd aa0b 8fbd
00000160: 0684 b2bc 2899 98bc 36ee b53c cd64 3e3d
00000170: 8212 07bb 94bd b33d 314a 533d c48c b6bd
00000180: 921c 033e e03c a43d b2dc e1ba 9560 ab3c
00000190: 9794 afbd eede 3dbe 7fb1 f33c 469d e2bb
000001a0: d862 96bd 61b0 a33d aad0 063e 6fe7 793d
000001b0: 159e 06be 84be a3bd f47c c03d c401 dcbd
000001c0: 6a6e 9cbd 0567 e23d 1c43 03be f8a4 51bd
000001d0: 5b23 9cbd eabe af3c e09c 613d 5036 283e
000001e0: ba46 dbbd 1481 d3bc a5e2 f23a 8e02 0bbe
000001f0: db61 0cbe fc50 1a3d 9436 093d c66c 05be
00000200: b37b c63d dc0d cbba 9548 823d 9c7e 1abd
00000210: 1c6c 1a3d 53a9 2ebe 6758 b63c 39bd 3b3e
00000220: 5769 043e 26e4 84bd 0a07 653d 6050 563d
00000230: 29d2 11bd 2d4c 83bc 0bc4 4abd 7805 fd3c
00000240: 411b e2bb 7239 8ebc 2527 64bd 5e37 23be
00000250: 58ad 2e3e c8bf 1a3d 52fc 2b3d 0126 373e
00000260: daeb 283c eae6 d4bd 5b46 13be 3244 433d
00000270: fbaf 4fbd bf12 a33c 8d47 17be 7b42 6c3d
00000280: cc01 1bbe 1f22 193e 2f91 27bd f697 eebd
00000290: 742c e7bb bca9 9c3d 9152 3d3d 6190 61bb
000002a0: b04f 5f3d 50b7 19bd db16 d3bd b026 213d
000002b0: 0bb3 993c 9def 17bc 22ef af3c 8caa 0abd
000002c0: bffe 05bd bd7b 323e 506c 9bbd 624a e0bd
000002d0: 0644 613d 99ec f2bc edd5 96bd 330d 48bd
000002e0: 809c 503d ccd2 983d 6fec 2d3d f0da 983d
000002f0: d86c 693d bcd2 303e c5cf de3d 8a78 90bd
00000300: 4fe8 09bc daa5 20be 00cc 763c 9ae2 c9bd
00000310: 5be2 96bd 65d1 10be d8d2 ac3d 7bed 9fbc
00000320: c18b 5a3d f682 aa3d 87ed 8e3b d2b7 113e
00000330: e6b2 b33d 845f bdbc 69af d1bb 8886 603d
00000340: f8f8 fbbd 0546 7bbc 063d d93d 621e 50bb
00000350: e15f e6bd a4a6 4f3b 507d 6e3d 7197 24be
00000360: e453 7ebc 41e6 6fbd 52ac 5bbd aea8 87bd
00000370: d10d 43bd eb4d 05be 388c 05bb 7c27 2abe
00000380: e193 67bd ec58 86bd 8aff 923c 8665 b53d
00000390: c0b0 ffbd a23c 2a3d a829 1a3d 535b f5bb
000003a0: 8719 67bd 0941 6c3d acee 9ebd b436 1abd
000003b0: 91f3 e9bd a35c cebd 6382 8dbd 14c6 07be
000003c0: eed9 533d f462 e03d 939e 2b3e 1bcf acbc
000003d0: 6ae8 023c afc8 8ebb 3e52 bf3c e711 0a3e
000003e0: 3afc f13c aa76 bb3d b00a 96bd 1d71 b93c
000003f0: 369f aabd 0003 68bd b009 803c 547d 02be
0.09410037 -0.058804724 -0.0022837461 0.01934349 0.024266629 -0.14378245 0.017352372 -0.009600271
0.20679191 -0.11327417 -0.15171626 0.110132195 0.015721377 -0.025497377 -0.15629674 -0.09584568
-0.020551912 0.041303392 0.09988047 -0.15013465 -0.002813163 -0.051452443 0.034719143 -0.044513237
-0.062602386 -0.08325254 -0.05169524 -0.06618806 -0.070633754 -0.17398274 -0.025921911 0.07360166
-0.075630255 0.1709637 -0.14993876 -0.0027865237 -0.14348035 -0.02037699 -0.010801677 -0.0638456
-0.16086872 -0.11023053 -0.0064533376 0.0005306254 -0.07321809 -0.23401566 -0.0997624 -0.10569162
-0.14500841 0.10026247 -0.15708348 -0.059684016 0.12117137 0.016974242 -0.0063947695 0.10243731
0.12434785 -0.016007114 0.00084224856 -0.08049753 -0.051673666 0.2644964 0.08018037 -0.041831523
-0.06794005 0.0906021 -0.04087008 -0.05812999 -0.093720905 -0.028554002 0.05198753 -0.038065434
0.08643619 -0.120080575 -0.026435662 -0.006260978 -0.0512179 -0.10753101 0.015979253 -0.0491201
-0.04862883 -0.09498998 0.150226 -0.084312595 0.036673155 0.10667737 -0.042149145 -0.069846466
-0.02179147 -0.018627718 0.022208314 0.04648285 -0.0020610397 0.087763935 0.051584426 -0.08913568
0.12803867 0.080194235 -0.001723191 0.020920077 -0.08573263 -0.18542072 0.029747723 -0.006915721
-0.07343072 0.07992626 0.13165537 0.061011728 -0.13146241 -0.07995322 0.09398833 -0.10742524
-0.07638247 0.11054806 -0.12818569 -0.051182717 -0.07623931 0.02145334 0.05508125 0.16426969
-0.107068494 -0.025818385 0.001853068 -0.13575193 -0.13709204 0.03767489 0.033499315 -0.13029775
0.096915625 -0.0015491801 0.063615 -0.0377184 0.037700757 -0.1705678 0.02225895 0.18333901
0.12930809 -0.06488828 0.055914916 0.052322745 -0.035600815 -0.016027534 -0.049503367 0.030886397
-0.0069002216 -0.017361376 -0.055701394 -0.1593909 0.17058313 0.037780553 0.04198868 0.17885591
0.010310138 -0.10395606 -0.14382307 0.047672458 -0.050704937 0.0199064 -0.14773388 0.05768059
-0.15137404 0.14954422 -0.040909942 -0.11650078 -0.00705486 0.07649562 0.04622132 -0.0034418332
0.054519355 -0.037528336 -0.10307094 0.039343536 0.018762132 -0.009273437 0.021476332 -0.033854052
-0.032713648 0.17430015 -0.07589018 -0.109516874 0.054996513 -0.029653834 -0.07365022 -0.048840713
0.0509305 0.07462081 0.04246181 0.07463634 0.056988567 0.17267889 0.10879473 -0.07054241
-0.008417203 -0.15688267 0.015063286 -0.09857674 -0.07367393 -0.14142378 0.08438653 -0.01952242
0.053355936 0.0832576 0.0043618116 0.14230278 0.087743565 -0.023116834 -0.0063990843 0.0548158
-0.123033464 -0.015336518 0.106073424 -0.003175639 -0.11248756 0.003168502 0.058224976 -0.16073395
-0.015522931 -0.058569197 -0.053631134 -0.0662397 -0.0476206 -0.13018005 -0.0020377766 -0.16616625
-0.056537513 -0.06559929 0.017944116 0.08857255 -0.12484884 0.04156173 0.037637383 -0.0074876933
-0.05642083 0.05767921 -0.07760367 -0.037649825 -0.1142341 -0.10076263 -0.06909635 -0.13259155
0.051721506 0.10956374 0.1675971 -0.02109485 0.007989982 -0.0043574194 0.023354646 0.13483392
0.029539216 0.09153493 -0.07326257 0.022636944 -0.08331148 -0.056643486 0.01562962 -0.12743121

gru.weight_hh_l1 f4 [192, 64]
00000000: fc46 513d b41b 383e 9d0d 93bc e14b 21be
00000010: af3d 7f3d cf1f 303d 5ce5 1cbe 4cb0 783b
00000020: 20de 64be 0cc6 a9bc 6f5f f13d 4369 ad3d
00000030: f3ed 223e ce68 f23d 856e 3cbd da73 0ebd
00000040: 03a3 963d fd2c 89bd 9df2 353d 0944 363e
00000050: 93dc d3bb 1e05 57bd c7c4 93bd 4f5e 52be
00000060: e026 7e38 3d36 db3d 942f ad3d e810 e23d
00000070: 5c66 783d 86e4 22be 1495 253e a896 8a3c
00000080: 4059 ccbd e28c 2b3d b87a a1bd 9578 243d
00000090: be0e 45be cd91 393e c24e bebd 3257 943d
000000a0: 2ef4 523e 8a77 73bd be32 5c3d f92f 58bd
000000b0: 48cd 86bc 9363 e8bd 8a8b 203e 4da0 0abd
000000c0: 17db 193d 9a5e 08be aad5 a0bc 404e 253a
000000d0: 445e 78bd d0cf 21bd ea16 653e 185c bbbd
000000e0: 431e 223d 711f 04be 8d96 47bd 3a47 ddbd
000000f0: 477a 253e 7e74 c63d 130e 833d 778c 4ebd
00000100: e2fb ddbc 3195 fbbd 4dc7 353e b778 323c
00000110: a5af 533c 6519 15be 18d6 8c3d a2ee bc3d
00000120: 3008 99bd 6eea 113c 0697 b4bd e402 9abd
00000130: efc0 303d 3b2d 92bd c5e9 a7bb a562 8fbc
00000140: 73ce 113d bd1a 80bd 18af 8f3c 3b7a 293e
00000150: 88c4 dcbd 2102 babc 88f0 ff3d 2496 02be
00000160: 4df8 bb3d 38b2 fb3d 7b49 87bc b097 003e
00000170: 309c 8b3d 0521 6dbc c425 aebb f917 3bbd
00000180: 6558 323d fade b43d d698 cfbd fd93 903c
00000190: de79 8dbd 699a 4d3d f3de 353e 30b4 9a3d
000001a0: 2d3c 53bd 3f48 1d3e 24ab bd3d 487a 08bd
000001b0: 21a0 da3d 8fc2 17be 1a71 09bd fcff 33bc
000001c0: b4b2 febd 9f44 0e3d 77de cf3c eda0 e5bb
000001d0: e810 343d c27b 2e3a 4064 2c3d f4bc ab3d
000001e0: 2c87 77bd eb62 dd3d 48fe bfbd 51e7 16be
000001f0: c5f2 123e afe5 a1bc 36c3 3b3d fe90 11bd
00000200: e2bc 283e 27bc 01bd 742f 0abe 78b1 913b
00000210: 2f8b 143e ab46 193d de66 2abe e23c 673d
00000220: 2558 ebbd 5ea0 92bc 9158 a93c 264b a5bd
00000230: ebc4 88bd 28ce e2bb ed84 7b3c 9c54 a9bc
00000240: fece b4bd e5f0 02be 7890 ce3d 2d8b 953d
00000250: f4b0 5e3c 19b9 07bc 07ab ebbd 4ccf 05bd
00000260: 091b e93c a8fb 81bd 114a 333e 8d01 fe3d
00000270: 7b7c 9b3d fcec 6fbc 53a4 103e 4a10 683c
00000280: ec14 313b 5166 943d f42d 543b dad7 d7bd
00000290: e4f4 3bbd 0930 6c3d 4c31 9f3d c383 723d
000002a0: d553 20bd c4db bdbc 4c14 06bd f0e5 a03b
000002b0: 720a 54bd 8691 07be b5e8 313e d9c8 053e
000002c0: 4f3f 833d 8b66 a5bb 71fc ccbd 7192 96bd
000002d0: a2af debc 94d6 233d f5fa b03c 2a5b b2bd
000002e0: ab51 24bd 08e8 b6bd ce3e 3ebc f49d 15bd
000002f0: 795d 58bd b32f 623c b42b d43c 6972 3abc
00000300: 42f4 fd3c 2d98 bbbd e602 2abc 9dae 81bd
00000310: c44d 0f3d 3723 58be d02b bf3d c366 233c
00000320: c608 a3bd 74b6 babb 78c7 bbbc 1fba a5bd
00000330: bfd1 b73d e75e ccbd 8296 66bd dad1 0dbe
00000340: 509b 6ebd fed9 13be 3a51 893d be5b b43c
00000350: e713 cebc 0c0a 9d3c 394d 9e3d 788b ff3a
00000360: 399b 62bd b977 ba3d ad2c d73d 64d4 95bd
00000370: 5835 303e 64cd 453e 44b2 773d 3e16 c4bd
00000380: e55c e73d d024 803d 47fb 86bd f60d 03be
00000390: 8df8 ff3d 219a 163e 0656 bc3d 1738 04be
000003a0: 8392 15be b5cc 91bd b9e7 ddbd 2231 9b3d
000003b0: 6d30 4e3d d482 a1bd 963d 9ebd 22f5 a7bd
000003c0: b45c 983d a487 fe3b 4a37 37be e969 00bc
000003d0: b020 d9bd c82e 07bd d5c9 babd baa6 f13d
000003e0: d197 3dbe 1c4c 9c3d 30f0 9ebd 72c7 a2bc
000003f0: c39d a43d 3db5 da3b c10d 2fbd eaba 343a
0.051093087 0.17979318 -0.017950827 -0.15751602 0.062314685 0.042999085 -0.15321869 0.0037946878
-0.22350359 -0.020724319 0.11785781 0.08467343 0.15911083 0.11836396 -0.046003837 -0.034778453
0.07355311 -0.06698034 0.044420827 0.17799391 -0.0064655035 -0.052495115 -0.07215267 -0.20543788
6.0594524e-05 0.107037045 0.084563404 0.11038381 0.060644493 -0.15907487 0.1617015 0.016917542
-0.099779606 0.041882403 -0.07884735 0.04015406 -0.19243905 0.18122025 -0.092923656 0.07243194
0.2060096 -0.059440173 0.05375933 -0.052780125 -0.016455308 -0.11347117 0.1567823 -0.03384428
0.037562456 -0.13317338 -0.019633133 0.00063059106 -0.060636774 -0.039504826 0.22372022 -0.09148425
0.03957964 -0.12902619 -0.04872756 -0.10804601 0.16159926 0.09690188 0.06399169 -0.050426926
-0.027097646 -0.122843154 0.17751808 0.0108930385 0.012920295 -0.14560468 0.06876773 0.09225203
-0.07472265 0.00890599 -0.08817868 -0.075200826 0.043152746 -0.07137533 -0.005124303 -0.017503092
0.035597276 -0.062551 0.017539546 0.16550533 -0.10779673 -0.022706093 0.124970496 -0.12752587
0.09178219 0.12289852 -0.01651453 0.12557864 0.068169 -0.0144732045 -0.0053145606 -0.04567716
0.04354133 0.08831592 -0.10136573 0.017648691 -0.0690801 0.050196085 0.1776083 0.07553899
-0.05157106 0.15359591 0.09261158 -0.03331974 0.106750734 -0.14820312 -0.033555128 -0.010986324
-0.12436429 0.03473341 0.025374634 -0.0070077092 0.043961436 0.00066560146 0.042087793 0.08385649
-0.060431644 0.10809883 -0.09374672 -0.14736678 0.14350422 -0.019762842 0.045840465 -0.035538666
0.16478303 -0.031673577 -0.13494664 0.0044462048 0.1450622 0.03742091 -0.16640803 0.056454547
-0.114914216 -0.017898735 0.020672115 -0.08070974 -0.06678184 -0.0069215484 0.015351516 -0.020670228
-0.08828543 -0.12787206 0.10086149 0.07301936 0.013591994 -0.008283877 -0.1150723 -0.032668397
0.028455274 -0.06346828 0.17508723 0.124026395 0.07592102 -0.014643904 0.14125185 0.01416404
0.0027020527 0.07246078 0.0032376023 -0.10539217 -0.045887843 0.057662997 0.077730745 0.05920769
-0.03914245 -0.023176081 -0.0327342 0.004910223 -0.051767774 -0.13239107 0.17373927 0.13064899
0.064085595 -0.0050476245 -0.10009087 -0.0735215 -0.027183358 0.03999956 0.02160404 -0.087087944
-0.040116947 -0.08930975 -0.0116116535 -0.03652759 -0.052823517 0.013805318 0.025899746 -0.011379817
0.03100026 -0.091598846 -0.010376668 -0.06332133 0.034986272 -0.21107183 0.093345284 0.009973231
-0.07960658 -0.0056980196 -0.022922263 -0.080921404 0.08975553 -0.09979039 -0.05629588 -0.13849583
-0.058253586 -0.14438626 0.06704946 0.022016402 -0.025155975 0.01916983 0.07729573 0.0019496521
-0.055323813 0.091048665 0.10506568 -0.07315901 0.17207849 0.19316632 0.06047274 -0.09574555
0.11297015 0.062570214 -0.06590896 -0.12798294 0.12498579 0.14707233 0.09196095 -0.12912022
-0.14606671 -0.07119123 -0.10835213 0.07577731 0.05033915 -0.078862816 -0.0772659 -0.08201052
0.07439557 0.0077676345 -0.17892185 -0.007837751 -0.10601938 -0.0330036 -0.09120528 0.11799379
-0.18514945 0.07631704 -0.07760656 -0.019870494 0.08037903 0.0066744373 -0.042737726 0.00068943074

gru.bias_ih_l1 f4 [192]
00000000: f4fa 11bd d423 6cbd 4f69 2abe 32f8 b2bc
00000010: 3489 583c a4da 48bc 7f8d 1fbe dc25 49bd
00000020: 3039 f3bd 0d71 1cbe 9ad9 03be 991a 49bd
00000030: 7fc6 2fbe 31f4 45be b2ce 55bd 6623 063e
00000040: 1756 3cbd c84d 31bd 7a06 80bd 0698 0f3d
00000050: c959 1abd a5cd 1abc 7031 86be 0d1e e6bd
00000060: 08b2 7d3d 62e6 ccbd d2a6 4ebe f305 20be
00000070: 29d8 22be a18a a03d f749 9cbd 9652 0cbe
00000080: 0f39 6fbe c335 06be 2603 81bd ca22 30bc
00000090: afd3 6a3d 4c84 71be ff0c 373e 4673 d1bd
000000a0: c4f6 4ebe cf04 07be b53f 0fbe ed98 5dbd
000000b0: f5ec 30ba 1508 a4bd 3dbb d0bc 18ab dfbd
000000c0: 4de0 60be 1fbb 63bd e02f 1abe 5f69 d63c
000000d0: c52c 88bd ad20 0dbe 1c0a b1bd 7adb 923d
000000e0: ab8b 9c3d 01c4 33be 3d75 c93c 4f8b 7fbe
000000f0: e44b 213d 96e9 c9bd bf61 063a 1a5b 25bd
00000100: d41c 80be a04c 26bd d477 e2bd 8c77 453d
00000110: 0523 26be cea3 dabd 8219 6abe 7577 973c
00000120: 8240 89be 5acd d9bd a274 bcbd 3c3f 6b3b
00000130: 0dcf 97be 87dc 5ebe 5144 9dbe b23b 223d
00000140: 95a4 83be a413 11be 3af5 71be ef8b 3fbe
00000150: ff16 6dbe 7dae 9a3c 2a7c 6cbe 3a6a 95be
00000160: 4b5b 80be 5595 67bd 40a4 febd b406 5dbe
00000170: 7604 613e ff08 943e fefc adbe d16e 16be
00000180: b536 a6be 7b55 b5bd 1c43 05be 04f2 10be
00000190: 4c51 babe 5f20 9bbe 3d12 0b3e 8694 7abe
000001a0: 1012 48be 710b 06bc a2a6 e33d d18c 94be
000001b0: 9399 0cbe 0c7b 86be 6a7a b2bd 7c54 8bbe
000001c0: f25b 3fbe 0b6d acbd 9f6d 67be a51a 843e
000001d0: b21d a23e e570 40bd 73ec a7be 1b31 28bc
000001e0: 9cd8 87bb f4ef 073d 6c9f 3b3d 6918 d5be
000001f0: e2b4 163e d096 6fbd f620 06be 98d3 5cbe
00000200: 2e05 413d 8a43 c4bd 3461 5c3d ab30 4c3d
00000210: a143 95bd 623a 963d bdb6 38bc c5ab d2ba
00000220: bf3a b139 bda2 ee3c f3ed bebd 5370 ce3c
00000230: 27f8 053c 2680 cc3d 342d 723d c702 44bc
00000240: 3bb3 e43c 351f dabb 7c7a d13b e40e 8fbb
00000250: b9bb 2c3d c363 26bd f31a 4fbc 3315 8d3d
00000260: 2d0f 34bd 2034 62bd 62b1 29bd 15c9 ec3c
00000270: 9e49 93bb 982b daba f939 d9bc e8f7 04bc
00000280: 559f 943d b9c8 103b 5f2b c7bb 8137 ee3b
00000290: 9d37 823d 703d 833d 577b 433c d3a9 c93d
000002a0: 95b5 53bc 3291 81bd e50c 863d 60db 98bd
000002b0: 589e 463c f27a 793d 7449 983d 1d27 613d
000002c0: e123 f93c a0e5 a7bc 9b7d 3f3c 5d6b c33d
000002d0: c0d8 d3bb 3c15 8a3c de73 61bd 2c14 51bd
000002e0: 7bd0 8c3d cb9b 79bd 1f30 403d 49b1 c03c
000002f0: 8b9b 7bbd 73a8 3c3d f40e 0cbb 4b02 503c
-0.03563972 -0.057651356 -0.16641735 -0.021846864 0.0132163055 -0.012259159 -0.1558132 -0.04910837
-0.11876142 -0.152775 -0.12875977 -0.04909763 -0.17165564 -0.19331433 -0.052199073 0.13099441
-0.04598054 -0.04328707 -0.06251235 0.03505709 -0.037683282 -0.009448444 -0.26209593 -0.112362005
0.061937362 -0.100048795 -0.20180824 -0.1562727 -0.15902771 0.07838941 -0.07631295 -0.13703379
-0.2336161 -0.13106446 -0.06299429 -0.010750482 0.057330783 -0.23585624 0.17876051 -0.10227065
-0.20211321 -0.13185428 -0.13989146 -0.05410092 -0.00067491765 -0.08009354 -0.025479907 -0.109213054
-0.21960564 -0.055598374 -0.15057325 0.026173292 -0.06649164 -0.13781996 -0.08644506 0.07170768
0.07643827 -0.17555238 0.024592036 -0.24955486 0.039379016 -0.09859006 0.00051262596 -0.040370084
-0.25021994 -0.04060042 -0.11058012 0.048209712 -0.16224296 -0.106757745 -0.22861293 0.018489579
-0.26807028 -0.10634871 -0.092019334 0.0035895845 -0.29650155 -0.21763812 -0.30716184 0.03960771
-0.25711504 -0.14167649 -0.23628703 -0.18705724 -0.23153304 0.01888203 -0.2309424 -0.29182607
-0.2506965 -0.0565389 -0.12433672 -0.21584588 0.21974358 0.28913113 -0.3398208 -0.1469071
-0.32463613 -0.08854195 -0.13013881 -0.14154822 -0.3639015 -0.30298135 0.13581176 -0.2447072
-0.1953814 -0.008181439 0.11115767 -0.29013684 -0.13730459 -0.26265752 -0.08714755 -0.27212894
-0.18687418 -0.08419236 -0.22600411 0.25801578 0.3166328 -0.046982665 -0.32797584 -0.010265614
-0.004145695 0.03318782 0.045806333 -0.41620186 0.14717439 -0.058493435 -0.13098511 -0.21565092
0.04712408 -0.095831946 0.053803638 0.0498511 -0.0728829 0.073353544 -0.011274037 -0.001607292
0.0003380384 0.029130334 -0.09322729 0.025200045 0.00817684 0.0998538 0.05912514 -0.011963553
0.027917495 -0.006656552 0.006392775 -0.004365789 0.042171214 -0.040622484 -0.012640703 0.06888809
-0.043959785 -0.05522549 -0.04142893 0.028904477 -0.00449486 -0.0016645072 -0.026516901 -0.008115746
0.07256953 0.0022092296 -0.0060781683 0.0072698 0.06358264 0.06408203 0.011931262 0.098468445
-0.0129217105 -0.06326522 0.06545428 -0.074637175 0.012122713 0.060908265 0.07435885 0.054968942
0.030412616 -0.020495236 0.0116876615 0.09541962 -0.0064650476 0.016855828 -0.05504214 -0.051044628
0.06875702 -0.06093959 0.04692089 0.023522036 -0.061427634 0.046059083 -0.0021371217 0.012695859

gru.bias_hh_l1 f4 [192]
00000000: cbed 2bbe d207 f4bd 01a8 0bbd a2df 58bb
00000010: e9c8 c2bd 985b 94bb 9230 90bb caf1 15bb
00000020: afe7 b1bd 6324 c0bd 1ab1 2ebe b479 ab3d
00000030: 1773 94be fbc8 0a3d e270 ccbd 6302 a33d
00000040: 82e1 2dbd d856 aabd 75ed 49be 84a2 afbd
00000050: 1191 ae3c 1694 15be 1695 08be b4c9 9b3c
00000060: c856 c1bd 8b34 07be 7532 f23b b9cb 80be
00000070: 564b babd 8adc b0bd dd15 6abd cd81 79bd
00000080: 6275 79be 36d8 aebd d91e 0fbe eabd 87bd
00000090: bb7f e7bd 4008 2cbe ce24 7b3d fec0 c7bd
000000a0: cdbb dbbd 8942 95bc 8d98 10bd e05c 19be
000000b0: 629d da3c ac10 83bd 0b65 3ebd 2c5b 423d
000000c0: c80f c63c 0c9d c8bd 024f b0bd 63b4 2c3d
000000d0: 7ff8 573c 19e5 51be b22f 3f3c d2d8 1dbb
000000e0: bd34 32bd 4a3e efbd a47a e9bd cc3d 94be
000000f0: 43b8 773d 0483 b0bd e96c 03bd 2047 6b3c
00000100: 5cb9 87be 6555 87bd 167a 20bc fc3b 8f3d
00000110: 658b b6be 8375 47be 61aa a8be 43e5 43bd
00000120: 00a7 14bd 7e2f 05bd be50 74bd 258a 03bd
00000130: 408c 43be 7972 a3bd 5bb4 53be d11d 18bd
00000140: fd46 65be 7ee6 8bbc 1699 84be a930 7cbe
00000150: 7304 dabd e833 2b3d 2a43 5fbe 8e25 4fbe
00000160: e576 8bbe 892b a13c 0fc9 03be 5562 77be
00000170: de21 c03e 2789 8f3d 77f9 a4be 2711 3fbc
00000180: 2e8a bebe 7d8b 81be 7706 a3be b5df 47bd
00000190: fb56 3cbe 2d93 96be ce1d 83bd dcad 80be
000001a0: 5792 8bbe 8b65 5fbe 5c1a cb3d 25b3 c8bd
000001b0: d2c6 6ebe 6e33 83be 8b90 5dbe f061 48be
000001c0: eb7f a0bd f55e dabd bd32 9cbe f97c ed3d
000001d0: 49a0 a73e b13f fabc eecf a5be 9bf0 11bd
000001e0: a5df 83bd 478f 87bd 23f4 a23d a79f 53be
000001f0: 8e41 9a3e 8e61 febd 7962 37be 9ed4 f4bd
00000200: 1af8 bcbc dc88 d53d d6f2 2e3c 61d4 a0bb
00000210: 7971 e73d 05aa 4abd 0294 9f3d a052 4a3d
00000220: e785 89bc faf1 8abd f427 c63c e106 8bbd
00000230: 2ecd b53c 0f00 1fbd 6e55 2d3b 0f66 0a3e
00000240: 1018 c63d 6cd2 e33d 16c6 0b3e 4b29 c93d
00000250: 68c8 bebd e273 463d 586e b43d a6be bdbd
00000260: 8c88 4f3d d014 96bc e232 a6bd be7f c8bc
00000270: 1689 443b 5f81 32bd daa3 21bd c00f 683d
00000280: 536e 95bd 8e0b 5c3c 5eaa 8f3d f4c1 9abd
00000290: f6b5 0bbe b1fc 09bd 3c0b 94ba 6769 e2bd
000002a0: c428 9c3d c699 e13d c1a7 dabd b781 1bbc
000002b0: 5d81 063d 23eb 54bd 97e8 e5bd 4332 823a
000002c0: eb58 e53c e3b3 993c ddf4 e33c 4c9b 9dbd
000002d0: 31a1 023e 3715 babd e799 913d 40d9 103d
000002e0: 2e27 22bb d21f b93d 854a 1b3d abba 363b
000002f0: ccb5 0e3d bd7d b23d 37a5 823c 30d8 22bd
-0.1678993 -0.11915554 -0.034095768 -0.003309228 -0.09510977 -0.0045275204 -0.0044003213 -0.0022879713
-0.08686768 -0.0938194 -0.17059746 0.083728224 -0.28994057 0.033883076 -0.09982468 0.079594396
-0.04245139 -0.083173454 -0.19719489 -0.08575919 0.021309407 -0.14607272 -0.13338122 0.019017078
-0.0944038 -0.13203637 0.007391269 -0.25155428 -0.090964004 -0.086358145 -0.057149757 -0.060914803
-0.24361184 -0.08537333 -0.13976611 -0.0662802 -0.113036595 -0.16800022 0.061314397 -0.09753607
-0.107291795 -0.018220203 -0.035301734 -0.14976835 0.026686374 -0.06399664 -0.04648308 0.04745023
0.024177447 -0.09795579 -0.086088195 0.042164218 0.013181805 -0.2049755 0.011669086 -0.0024085534
-0.043507326 -0.116818026 -0.11400345 -0.28953397 0.06047846 -0.08618739 -0.032086287 0.014360219
-0.26508605 -0.066080846 -0.009794733 0.06993863 -0.35653225 -0.19478421 -0.3294249 -0.047826063
-0.036292076 -0.032515995 -0.059647314 -0.032114167 -0.1909647 -0.07980818 -0.20674269 -0.03713781
-0.22390361 -0.01707768 -0.25898045 -0.24627937 -0.1064538 0.04179755 -0.21802965 -0.2022917
-0.27239147 0.01967408 -0.12869667 -0.24158604 0.3752584 0.070085816 -0.32221577 -0.011661804
-0.37214798 -0.25301734 -0.3184087 -0.048797328 -0.18392555 -0.2940916 -0.06402169 -0.25132644
-0.27260086 -0.2181608 0.09917137 -0.09799794 -0.23318031 -0.25625175 -0.2163717 -0.1956861
-0.078368984 -0.10662643 -0.3050746 0.11596102 0.32739475 -0.030547949 -0.323852 -0.03562985
-0.06439141 -0.06619125 0.07956722 -0.20666371 0.3012814 -0.12420951 -0.17908658 -0.11954616
-0.023067523 0.104264945 0.010678014 -0.00490813 0.1130094 -0.04947855 0.07791902 0.049395204
-0.016787482 -0.067844346 0.024188973 -0.067884214 0.022192564 -0.038818415 0.0026448625 0.13515495
0.09672558 0.11124119 0.13649783 0.09822329 -0.09315568 0.04845036 0.08810109 -0.09264879
0.05066733 -0.018320471 -0.08115174 -0.024474975 0.0029988936 -0.04358041 -0.0394629 0.056655645
-0.07296433 0.013430489 0.07014917 -0.07556525 -0.13643631 -0.03368825 -0.0011294852 -0.1105526
0.07624963 0.11015658 -0.10676528 -0.009491376 0.032838214 -0.051982056 -0.112260036 0.0009933192
0.027996501 0.018762534 0.02782672 -0.07695636 0.12756802 -0.09086078 0.07109433 0.035363436
-0.0024742591 0.09039272 0.037912864 0.002788226 0.034841344 0.08715389 0.015947921 -0.039756954

gru.weight_ih_l2 f4 [192, 64]
00000000: 4382 75bc ec57 99bd ba75 f23d 4006 05be
00000010: 76bc dbbc 9d5b 95bd b789 0f3e 2537 58bd
00000020: 3512 cebc 2c4e 393d dea4 93bd 8764 efbd
00000030: 0e92 cfbd 6bd5 9dbc da14 9b3d 4405 bbbd
00000040: 9d93 8b3d a094 a43c 7c37 523d 0a1f edbd
00000050: ae76 1a3c 338d a2bd b17c ff3d 5266 c63c
00000060: 4d6a cdbb 5e2e ffbd 1287 44be bb77 803d
00000070: f892 10bd 2961 52bd 6356 aabd f781 ac3c
00000080: 17da 2cbd 8f53 423c 2a66 163e 7e28 48bc
00000090: 1dc7 523e dcc3 aebd 64c3 08be c692 22be
000000a0: feee 023d cf0e 9ebb 344b 183e 7911 583d
000000b0: b7dd 493d ea73 523c ef5e 853d f384 af3b
000000c0: bcbf 98bd bb80 dd3d 1f96 bcbd dd57 0e3e
000000d0: 7d2c 3abd b882 173d a850 f9bd 7a9a 4bbd
000000e0: 143e 663e 5c81 9bbb 34af b73d c62b fe3d
000000f0: bb6f 96bd 6a0e 15bc a986 31bd 93e0 01be
00000100: 9cc8 f1bc 18c7 c0bd 8153 eebd 64e2 aa3a
00000110: 9f98 d2bd 32fe 3dbd 1ae5 9d3c d666 3ebd
00000120: b628 aebc da84 98bd 814b 8ebd 36f7 60bc
00000130: 11d5 bc3c 50dd b5bd c52a 183d 1e1a 353d
00000140: 06c2 623d c581 8abe 2998 00be fcb4 adbd
00000150: 5e35 443e 3a74 1cbc 11b7 793c a953 093d
00000160: c0ed 65bd 38e2 67bc 2118 3abd 6fb1 93bd
00000170: 8376 efbb 8f44 9dbd 4be8 323c e021 f3bc
00000180: 4f37 7a3d c34d 563d 8abf 82bb b9e9 423c
00000190: 4e61 363b ad2a 09be 1986 b43b 9870 283b
000001a0: 4e7e 1e3d 286a d6bc e9ad 193e 490d 0d3e
000001b0: 61ab 213e 8f3f a43b 04cf 3cbe 6a04 f3bd
000001c0: de54 c0bc 5f59 88bc 2c2a 643d 3e6a bfbd
000001d0: 0c86 0f3e d9dc 52bd 0e68 adbd 8465 f3bc
000001e0: d255 46bd c787 be3d 9ece 91bd 6e4e 5abd
000001f0: 4389 68bd 3c04 bf3c 5ff4 0c3c caaf a2bd
00000200: 9ec8 debc 91bf b23c 9e22 34bd 71b0 cebc
00000210: 0883 f13d ebcd cebc 6d07 33bc cb3f 8b3d
00000220: b69f 41be f6e9 223c 4e6e bf3b 56a7 3bbd
00000230: 7694 653c 4be6 f2bd 44ac e1bd fe5e c2bd
00000240: 0bfa 543d 5b86 03bd 0130 013e 664a d83d
00000250: 35f9 0d3e d706 2fbe 093b 09bd fa77 d7bd
00000260: 701c 6c3e f643 cb3d 9472 2d3e a623 323e
00000270: 87f1 d93d 7099 59be 9673 2b3d 40ec 8ebd
00000280: 716b 6bbc e783 dc3d b369 a7bd 91fc a8bd
00000290: 4e0a 0cbe 5f68 633d 5808 b3bc 6130 533e
000002a0: b37a 0ebd 0206 b2bb 1188 573e b447 093e
000002b0: 5fda 3a3e f50a 8a3b f7ab 72bb 5184 323c
000002c0: 64a5 1bbe c701 9fbd bf0f 783d 0471 c0bc
000002d0: 8eb3 81ba d02b a7bd adaf 0f3e 6785 a53d
000002e0: 3bb7 343e 37f4 1ebd 6347 efbb 4e8f 1abe
000002f0: 0ccd 0d3e a091 16bd 8fb0 a8bd f88f 213b
00000300: fd3c 6a3d cc7b dbbc 21a9 ab3d e3d4 01be
00000310: a39d 84bd b468 023e 93b1 a3bd 01a3 efba
00000320: 0878 88bd 7763 c9bd b842 043e 8c92 0fbd
00000330: bbf5 923d f24d 503d 95ee 1abe 3019 3abd
00000340: 476e 0cbe af3c 6d3d cd51 28bd c298 0b3e
00000350: c3e2 8fbd 8ec4 943a 8319 123d 2725 903d
00000360: 7d0a 7b3d 753b 833d f789 383e 8cef d53d
00000370: 8f09 59be 0bf1 43bd 879a 5fbd 36db 04be
00000380: d299 1cbe d1ce 0e3e 76a2 debd b5a3 23bd
00000390: 4fca adbd 4b10 723d 7fa2 31be c582 183e
000003a0: b560 20bb 31f1 ddbd 5e74 30be ef00 e83c
000003b0: 7d6a cb3b 4c61 fe3d 4b50 5a3e f798 c83d
000003c0: c54b d13c 8872 ce3d 390f e1bd 8f0d 4ebe
000003d0: 3bc1 0e3c 5dbe da3d 1a33 243e 853e 00be
000003e0: 45a9 9f3e 41a7 22bc 01e9 223c 3bb1 573c
000003f0: fcff 003e ecf6 45bb ce18 a53d 1aae 233e
-0.01498467 -0.07487473 0.11838861 -0.12990665 -0.026823264 -0.072928645 0.14017378 -0.052786965
-0.025155166 0.045240566 -0.0720918 -0.11689096 -0.101352796 -0.019266805 0.075723365 -0.09131864
0.068152644 0.020090401 0.051322445 -0.11578186 0.0094277095 -0.07937088 0.12474955 0.024218712
-0.0062687756 -0.12460016 -0.1919215 0.06272837 -0.03529641 -0.05136219 -0.08317258 0.021058066
-0.042200174 0.011860742 0.1468741 -0.012216685 0.20583768 -0.08533451 -0.13355786 -0.15876302
0.031966202 -0.0048235427 0.14872438 0.05275104 0.04928371 0.012845019 0.06512248 0.005356425
-0.074584454 0.10815569 -0.09208321 0.13900705 -0.045452584 0.036989897 -0.12173587 -0.049707867
0.22484618 -0.0047456454 0.08968964 0.12410693 -0.0734553 -0.009097675 -0.043341313 -0.12683325
-0.029514603 -0.09412974 -0.11637021 0.001303744 -0.102830164 -0.046384998 0.019274283 -0.04648479
-0.021259647 -0.074472144 -0.06947995 -0.013730815 0.023050817 -0.08880103 0.037150163 0.04421436
0.055360816 -0.2705213 -0.12558044 -0.08481786 0.19160983 -0.009549195 0.0152414 0.03352705
-0.05613494 -0.014153056 -0.045433167 -0.07211577 -0.007307829 -0.07679092 0.010919641 -0.029679239
0.061087903 0.052320253 -0.0039901184 0.011896544 0.0027828994 -0.13395186 0.0055091497 0.0025701877
0.038694672 -0.026173666 0.15007748 0.13774599 0.15788032 0.0050124596 -0.18438345 -0.11866076
-0.023477968 -0.016644178 0.05570428 -0.09346436 0.14015979 -0.051480148 -0.084671125 -0.029711492
-0.04842169 0.09303241 -0.07119487 -0.053297453 -0.056771528 0.023317449 0.0086031845 -0.07943685
-0.027195271 0.021819862 -0.043978326 -0.025230618 0.1179257 -0.025244674 -0.010927063 0.06799277
-0.18908581 0.009943476 0.0058420068 -0.04581388 0.014012447 -0.11860331 -0.11019185 -0.094907746
0.051996272 -0.032110553 0.12615968 0.105610654 0.13864596 -0.17092453 -0.033503566 -0.105209306
0.23057723 0.09925072 0.1693824 0.17396411 0.10641771 -0.21249938 0.04185828 -0.06978655
-0.014368878 0.10767346 -0.081744574 -0.08251298 -0.13675806 0.055519458 -0.021854565 0.20623924
-0.034784984 -0.005432845 0.21047999 0.13406259 0.18247364 0.004212732 -0.0037028769 0.0108958045
-0.1519981 -0.07764011 0.06056189 -0.02349139 -0.000989543 -0.081626534 0.14031859 0.08082085
0.17648022 -0.03880712 -0.007302211 -0.15093729 0.1384775 -0.036759973 -0.08236801 0.0024652462
0.05718707 -0.02679243 0.08381868 -0.12678866 -0.06475379 0.12735254 -0.07992854 -0.0018282832
-0.06663519 -0.098334245 0.12916076 -0.035051867 0.071757756 0.050855584 -0.15130074 -0.045434177
-0.13713942 0.0579192 -0.041093636 0.13632491 -0.07025673 0.0011350082 0.03566886 0.07038336
0.0612893 0.06407825 0.1802138 0.104460806 -0.21195053 -0.0478373 -0.054590728 -0.12974247
-0.15293053 0.13946082 -0.10870831 -0.039951045 -0.08485853 0.05909757 -0.17347144 0.14893635
-0.0024471704 -0.10837019 -0.1723189 0.028320758 0.0062077628 0.12420902 0.21319692 0.09794801
0.025548825 0.10080439 -0.109892316 -0.2012236 0.008713062 0.1068084 0.16035119 -0.1252385
0.3118383 -0.009927572 0.009943248 0.013164814 0.1259765 -0.0030206991 0.08061372 0.15984383
